model/lenet5.pth (torch, 250313 bytes, 10 tensors)

conv1.weight f4 [6, 1, 5, 5]
000000 0b f4 16 be 47 22 bd be 43 01 0c bf 23 79 61 bb
       -0.14741533 -0.36940214 -0.54689425 -0.0034404479
000010 c3 c1 dc 3d 86 5f b3 be ac 96 01 bf 0d b9 e3 be
       0.107791446 -0.35033816 -0.5062053 -0.4447712
000020 bd 2b 65 be 2c 9a 3f 3e 0f 13 d4 be c1 8b 33 bf
       -0.22379966 0.18711156 -0.4142079 -0.7013512
000030 82 f2 0a bf 9f 1b c9 3b df 46 02 3e 00 6e a1 be
       -0.5427629 0.006137326 0.12722348 -0.31529236
000040 2d 57 91 be b9 6f 0c be 0f ad b7 3e 9d 75 dc 3e
       -0.28386822 -0.13714494 0.3587422 0.43058482
000050 3d 34 c1 3d 47 e0 b6 3d d2 0e d7 3e 09 3d 23 3f
       0.09433792 0.08929496 0.42003495 0.6376501
000060 2e e2 5a 3f ab 74 53 3d 23 ca b6 3e fa 40 b5 3e
       0.8550137 0.051624935 0.35701093 0.35401136
000070 3e 28 be 3e 71 91 86 bd b3 07 61 bb bb c4 19 3f
       0.37140077 -0.065707095 -0.0034336864 0.6006581
000080 4a f1 1c 3f b6 07 9d 3e 72 fc 27 be 93 5c 20 3e
       0.6130568 0.30669945 -0.16404894 0.15660314
000090 1a 2b e8 3e 61 f9 3a 3f 49 bf 4d 3e 25 29 46 bd
       0.45345384 0.7303677 0.20092501 -0.048379082
0000a0 4b 79 43 3d 5e 38 b1 3e 3e 0d 77 3e 13 57 44 be
       0.047723096 0.34613317 0.24126145 -0.19173841
0000b0 db a8 5c bd de c8 af be 72 6b 01 bf 93 9f cd be
       -0.05387197 -0.34332937 -0.50554574 -0.40160808
0000c0 0c 74 26 bf e6 4f 28 bf a3 00 13 3e bf 0e b1 3c
       -0.65020823 -0.65746915 0.14355712 0.021613477
0000d0 83 08 f7 3e 32 eb 02 3f 2d b6 88 3e 51 fe a5 3d
       0.4824868 0.5114013 0.2670149 0.08105148
0000e0 d0 f3 02 3f 13 7d af 3e 30 67 66 3e a2 3e bb 3e
       0.5115328 0.34275112 0.225003 0.36571223
0000f0 29 ba bd 3e 75 22 b5 3e 40 33 75 be a4 d8 74 be
       0.3705609 0.3537785 -0.23945332 -0.23910767
000100 c0 d7 ab be ab c9 83 3e 5e 9f e6 bd cf 81 1f bf
       -0.33563042 0.25739798 -0.11260866 -0.6230745
000110 63 42 f7 be 68 04 0c bf 86 4c 30 be 58 80 62 be
       -0.48292837 -0.54694223 -0.17216691 -0.22119272
000120 6d df 1e bf 32 6c 1f bf 1c e7 d8 be aa 6f bf 3d
       -0.6205967 -0.6227447 -0.42363822 0.0934747
000130 b7 ba 91 be ec 6e 19 be 65 26 a8 be b8 56 35 bd
       -0.28462765 -0.1498372 -0.32841793 -0.044272155
000140 60 f6 ae bc fe 57 cd be 2a 9c 22 bf 62 07 0e bf
       -0.021357715 -0.40106195 -0.6351954 -0.55480015
000150 80 69 ae be 25 f6 85 bc b6 7c 01 bf 57 77 37 bf
       -0.34064865 -0.016352722 -0.5058092 -0.71666473
000160 22 f9 bf be 50 d9 29 3d 7e da b7 3d 2c e3 2d be
       -0.3749476 0.04146701 0.08977221 -0.1698119
000170 df 56 77 3d 36 b4 fe 3d d5 41 76 3e 8e 86 01 3f
       0.06038558 0.12436716 0.2404855 0.5059594
000180 e3 fd 35 3f 79 22 09 3f 13 fe 30 3f e5 44 a7 3e
       0.71090525 0.53568226 0.69137686 0.3266975
000190 07 f3 9b 3e 9c c8 81 3e 63 f6 18 3f d1 3e 87 3e
       0.30458853 0.25348365 0.59750956 0.26415113
0001a0 08 b5 b2 3e 91 c8 24 3e de d1 27 3e ee 72 97 be
       0.3490374 0.16092135 0.16388652 -0.29579872
0001b0 0c 07 98 be 73 b3 da be ca 36 a3 bd a7 32 89 be
       -0.29692876 -0.42715034 -0.079694346 -0.26796457
0001c0 6c b3 00 bf 4d c9 38 bf 6d 70 df be 1b a7 89 3e
       -0.50273776 -0.7218216 -0.43640462 0.26885304
0001d0 a3 26 45 3d 8a ae fd be 09 cf 40 bf 3a 88 5d be
       0.04813255 -0.49547225 -0.7531591 -0.21633998
0001e0 e7 95 3c 3f 53 7e ae 3e d2 b0 e2 be 2b 1f c3 be
       0.7366623 0.34080753 -0.44275528 -0.38109717
0001f0 e2 3b 20 3d 73 2c 2f be 29 d2 08 bf 82 e7 20 bf
       0.03911961 -0.171068 -0.5344568 -0.6285325
000200 c3 59 3e bf 0f 1d 1e bf 86 cc b3 3d 1b cc 53 bd
       -0.74355716 -0.6176309 0.08779244 -0.051708322
000210 77 94 9b be 49 8b b9 bd 03 79 83 be 88 aa 46 3f
       -0.30386707 -0.0905977 -0.25678262 0.7760396
000220 6c 9a 0e 3f 16 99 fa 3e 4e 8f 17 3f e0 c6 18 3f
       0.5570438 0.4894492 0.5920304 0.5967846
000230 96 69 73 3f 24 2e fd 3e 04 12 54 3f 8e 37 66 3f
       0.95082986 0.49449265 0.8283999 0.8992852
000240 4a 68 4f 3f 65 ab c1 3e 34 25 2e 3e b8 be 7b bd
       0.8101851 0.37826076 0.1700638 -0.06146118
000250 9f 5a c3 bd a4 24 35 3e
       -0.09538769 0.17689759

conv1.bias f4 [6]
000000 67 54 71 be 43 69 ab be ad 2c a8 bd 3b 3a f2 3d
       -0.23567353 -0.33478746 -0.08211646 0.11827513
000010 1a 6b f0 3e 32 ab fc bd
       0.46956712 -0.123373404

conv2.weight f4 [16, 6, 5, 5]
000000 2d 8a 8f bb 70 62 84 3d ba a2 5a 3d 7d 0e 8d bc
       -0.0043804855 0.06464088 0.053377844 -0.017218823
000010 4a d5 31 be ca 6e 85 3e 49 0a 91 3d a3 58 5b 3c
       -0.1736652 0.26061088 0.0708204 0.013387832
000020 52 ca 18 be f9 8f 32 be ea 09 04 be 51 21 a6 be
       -0.14920929 -0.17437734 -0.12894407 -0.32447293
000030 1d 72 97 be d1 4a 2e be a7 62 04 bd 75 3c 0d be
       -0.2957925 -0.17020728 -0.032320645 -0.13792594
000040 ae 87 5f bd bf a1 49 bd 71 46 80 3a 9b 3c 87 3c
       -0.054572754 -0.04922652 0.0009786618 0.016508391
000050 46 63 cd 3d cd e4 04 3e 2f 4c 86 3c c0 68 1c 3d
       0.100287005 0.12977906 0.016393749 0.038185835
000060 c4 2e 8a bd d3 8d ed bb 67 99 a6 3b 40 1f 9f 3d
       -0.06747201 -0.007249573 0.005084205 0.07769632
000070 9e f6 ce 3c f4 49 3d 3e 47 84 ad bd 86 34 8d 3d
       0.02526408 0.18485242 -0.084724955 0.06894784
000080 b4 9f 2a 3e 8b ad 94 3e 5a 56 91 3e 13 f2 bc 3d
       0.16662484 0.29038653 0.28386194 0.092258595
000090 aa 3e c8 3e 39 6f 92 3e 85 6f cc 3d 74 55 92 3d
       0.3911031 0.2860048 0.09982208 0.07145205
0000a0 ac 33 94 bc cf 31 a5 3d 3b dd 83 3d ea de 2a bd
       -0.018091045 0.08066141 0.06438681 -0.041716494
0000b0 b6 8e 09 3e 3d 36 f8 bd cb 21 38 be 6e 91 29 be
       0.13433346 -0.1211972 -0.17981641 -0.16559383
0000c0 8d ed 9d 3d 09 4f 40 3d 3d ed 31 3d 72 35 11 bd
       0.07711325 0.046950374 0.04343914 -0.03545136
0000d0 51 b4 27 be 1e 82 c0 bc a1 44 19 bd 5b ff 81 be
       -0.16377379 -0.023499545 -0.037418965 -0.25390133
0000e0 02 21 03 bd 12 ce a8 3d 0d fc c3 3c ef ef 62 3c
       -0.0320139 0.0824243 0.023923898 0.01385115
0000f0 d3 89 44 3e 59 58 ae 3d b2 d9 2d 3d f6 1c da bd
       0.19193201 0.08512945 0.04244394 -0.10650055
000100 73 89 a5 bd 25 6c 8f 3e 6d 8c 5f 3e 2e 67 fb bd
       -0.08082857 0.28012195 0.21830912 -0.12275539
000110 7d 31 40 bd f6 8b a7 3d 3f 14 7b bd 33 0b 21 be
       -0.046922196 0.08180992 -0.061298605 -0.15726928
000120 58 40 b2 bb cf 43 e7 3d cd 05 49 3e 1e dc 2a 3d
       -0.0054397993 0.1129223 0.19631119 0.041713826
000130 d8 43 72 bd bb 9a d1 bd ad be c5 bd 03 0d 18 be
       -0.059146732 -0.102345906 -0.09655509 -0.14848714
000140 3e 43 96 3d 87 70 c1 bb c7 79 14 be 58 80 35 be
       0.07337044 -0.005903307 -0.1449958 -0.1772474
000150 64 85 4f be 05 07 5e be 4b 87 65 be 91 59 7e be
       -0.20265728 -0.21682365 -0.22414891 -0.24838854
000160 a7 9c 9c bc 49 41 b3 bc db 0a 2f bd c1 d0 42 bb
       -0.019117666 -0.021881716 -0.042734962 -0.0029726478
000170 5c 8a 91 3d 75 15 26 bb 64 64 1a be f4 55 9e 3e
       0.07106468 -0.002534238 -0.15077358 0.30924952
000180 27 b7 7d 3e 3a 33 a0 3d af e8 04 be d2 b3 89 bd
       0.24776898 0.07822271 -0.12979387 -0.06723751
000190 de 83 c9 3d 10 32 4f bd ce c4 57 be 86 c7 99 be
       0.09839605 -0.050584853 -0.21071169 -0.30035037
0001a0 2e 85 5b be 32 9c 51 be 82 89 96 be 12 34 84 be
       -0.21437523 -0.2046974 -0.29401785 -0.25820976
0001b0 a0 e1 4e bd ce 1e 11 3d d8 93 7b be ec 9f 32 be
       -0.05050814 0.03542977 -0.24568117 -0.17443818
0001c0 cf d8 6a be 76 a1 a8 bd 46 7c 53 bd ce 85 0a 3e
       -0.22934268 -0.08233921 -0.05163219 0.13527605
0001d0 5d a1 05 3e 59 e5 fa 3c 69 d6 c4 bd c7 e5 ed bd
       0.13049836 0.03062694 -0.09611208 -0.11616092
0001e0 f5 8e 25 3e 89 17 9c 3c d9 24 cb 3b dc f9 da 3c
       0.16167815 0.019054191 0.006199461 0.02673047
0001f0 5b a4 68 bd b3 f0 2b be 76 9d 30 be 5a 5d 94 bd
       -0.056797367 -0.16791038 -0.17247567 -0.07244368
000200 f2 54 d1 3c 69 cc 0a 3c a8 64 6e 3a 7f ca 2a 3c
       0.0255532 0.008471587 0.00090939784 0.010424255
000210 e5 59 09 be 6d e8 46 bd 23 bc ba bd 3b ee 0b bd
       -0.13413198 -0.048561502 -0.091179155 -0.03416274
000220 ea 80 ca bd fc 8e b0 bd 57 68 c9 bc ac 46 6c 3e
       -0.0988787 -0.08621022 -0.024585886 0.23073834
000230 cf 0a 4f be 65 45 c8 be 61 dd 53 be ac 5b 15 3e
       -0.20218967 -0.39115444 -0.20689918 0.14585751
000240 80 d2 90 3e 97 87 0a be 1c a2 ae bd 53 ce 22 be
       0.282856 -0.13528286 -0.08527014 -0.15899019
000250 d1 08 1c be c3 d2 99 3c 72 c1 de bc 42 e0 b8 bc
       -0.15237738 0.018777257 -0.027191851 -0.022567872
000260 8f fb 9e bd b6 43 2e be de b5 7f bd 0e 95 de bd
       -0.07762825 -0.17018017 -0.0624293 -0.10868274
000270 52 86 d0 3b 72 5d e0 bd ef 18 58 be c6 90 b0 bd
       0.0063636685 -0.10955323 -0.21103261 -0.08621363
000280 04 64 02 3e 77 d4 e9 3c 16 86 a1 be 96 7b 90 be
       0.12733465 0.028543694 -0.31547612 -0.2821929
000290 d4 e9 54 be 6e 42 ad bb 06 ba 72 be 3e d3 ac be
       -0.20792323 -0.00528746 -0.23703775 -0.33754915
0002a0 7a 82 e2 bd 54 be 66 bd c3 8f 35 bd cc af 69 be
       -0.11060043 -0.056333855 -0.044326555 -0.22820967
0002b0 be f2 b6 bd b4 17 af 3c 71 09 17 3e 75 0c b0 3b
       -0.08933018 0.021373607 0.14749695 0.0053725787
0002c0 0a 7e 14 3d d6 e1 22 3d 5c 4c 2d 3e f7 5c b1 3d
       0.036253013 0.039766155 0.1692366 0.0866031
0002d0 6d 87 04 bb 93 08 8b 3d 2e 30 08 3e 92 d6 f9 3d
       -0.0020222322 0.06788745 0.13299629 0.12199129
0002e0 3a 4e b9 3c a2 81 c0 bb 45 95 6c bb d6 12 a7 3e
       0.02262031 -0.0058748284 -0.0036099714 0.32631558
0002f0 7f 60 5f 3e 34 0e b7 bd 10 f8 35 bc ff a3 44 3e
       0.21814154 -0.08938256 -0.011106506 0.19203185
000300 c5 be 50 3e e6 9f 1d 3d 39 15 e3 bd 48 6a 41 3e
       0.20385273 0.03848257 -0.11088032 0.188882
000310 a0 8f 55 3e 11 cc 66 3c 53 f2 6a bd 3f 05 46 be
       0.2085557 0.014086739 -0.057360005 -0.19337939
000320 aa d0 8e bd ae fb 1d bd 23 83 4d bc 8f b5 30 3e
       -0.06973393 -0.0385701 -0.012543472 0.17256759
000330 b5 6b e4 3c 03 fc 0e be 8f 8f 44 be 59 70 50 be
       0.02788339 -0.13963322 -0.19195388 -0.20355357
000340 c5 e2 44 3e 84 11 84 bc df bb 87 be f6 fd 5c be
       0.1922713 -0.016121633 -0.26510522 -0.21581253
000350 67 c1 3e bd 7a 70 31 3e fb b5 11 bd 61 36 48 be
       -0.04657116 0.17328063 -0.03557394 -0.19551994
000360 2d db c8 3d c7 07 74 3e d3 dc 85 3d 26 0b d2 bd
       0.098074295 0.23831092 0.065362595 -0.10256033
000370 fd 58 98 bd 39 d1 3c 3e dc e7 e6 3d 7e b3 31 3d
       -0.07438848 0.18439187 0.112746924 0.043384068
000380 dc 5f 22 bd 78 fc 6a 3c fc 24 a5 bd 5a 3f 21 bc
       -0.0396422 0.01434242 -0.08063695 -0.009841764
000390 84 14 2f be 43 a1 3a be cf 53 f1 bd 4e da 03 b8
       -0.1709767 -0.18225579 -0.11783563 -3.1436146e-05
0003a0 7c 4f 1e be 81 10 07 be f9 d3 50 bc e9 ba 03 3d
       -0.15460008 -0.1318989 -0.012745851 0.032160673
0003b0 d6 06 c5 bc f7 aa 86 be cc 0c 46 bc 9d 11 0d 3e
       -0.024051111 -0.2630231 -0.012088012 0.1377625
0003c0 c0 2a 90 bc 12 f2 35 be e9 81 40 be 67 76 87 3d
       -0.01759851 -0.17768124 -0.18799557 0.0661438
0003d0 b0 d6 7a 3e 11 11 7f bd bc 7a 23 bd 39 bd cf 3c
       0.2449596 -0.062272135 -0.03991197 0.025358783
0003e0 ef 77 13 3e d2 ff 5f 3e c1 b0 cb bd c2 30 6d 3c
       0.1440122 0.21874931 -0.099458225 0.014476957
0003f0 ec 92 bf bd 85 5f b2 3d 5c 4c 4a bc 6c 72 0b bc
       -0.09354195 0.08709625 -0.012347307 -0.008511167

conv2.bias f4 [16]
000000 89 f3 0c be d9 22 34 3e 9a 68 07 bd 9c 5a 22 3f
       -0.13764776 0.17591418 -0.03305874 0.6341951
000010 29 58 81 3e 32 9a 97 3d a6 6b 2a bd c4 cd 32 bd
       0.25262573 0.07402457 -0.041606568 -0.043653265
000020 ad 11 9b 3d 18 e6 2e 3e 57 37 3a be 67 a0 85 3e
       0.07571731 0.17079961 -0.18185173 0.2609894
000030 06 5a be bd bb c6 c4 be 52 82 24 3e 82 56 bb 3d
       -0.09294514 -0.3843287 0.16065338 0.091473594

fc1.weight f4 [120, 400]
000000 54 d0 9f 3d e9 85 f2 3c e3 11 b0 bc aa bd 08 bd
       0.07803407 0.029604869 -0.021492904 -0.033384003
000010 f3 38 ab bc 0a 6b 5c 3d 42 ca 21 3d 31 1b 59 bd
       -0.020901179 0.053813018 0.03949953 -0.053004447
000020 fc 71 8e bd 33 4b fa 3c d9 9c bc bd a1 43 eb bc
       -0.069553345 0.030553436 -0.09209604 -0.028718771
000030 2e 9b f1 3d 6f fb 0b 3d 81 30 aa bc cb eb 51 bd
       0.11797176 0.034175333 -0.020775082 -0.05125026
000040 f7 f7 b7 bd e6 e2 71 3d 71 2b 1c bd b0 c8 f9 bd
       -0.089828424 0.059054278 -0.038127366 -0.12196481
000050 d1 a1 5f 3d 03 90 fe 3b 44 bc 47 b9 02 e7 0f bd
       0.05459768 0.0077686324 -0.00019048253 -0.035132416
000060 e4 00 91 bd dd ea 12 3d ca 57 01 bd 0c 70 3f 3d
       -0.07080248 0.035868514 -0.031577863 0.046737716
000070 7e 0a 1f bc 65 fd a7 bc c4 89 60 bd 6d 7f 90 bd
       -0.009707091 -0.02050657 -0.054818884 -0.070555545
000080 30 b8 6e 3d f7 a9 ea 3b f3 1d ae 3d c0 0f 29 bd
       0.058281124 0.0071613747 0.08501806 -0.041274786
000090 fb 56 b0 3d 72 de bd 3d c1 c4 11 3d a3 cd 4c bc
       0.0861034 0.09270944 0.03558803 -0.0125001995
0000a0 46 6d 49 bb 76 72 e0 bc 47 8c f3 3c e6 33 41 bd
       -0.0030735298 -0.02739833 0.029729975 -0.047168635
0000b0 5a eb aa bc 1b 14 db 3c 77 57 b5 bc dc f8 c4 bd
       -0.020864177 0.026742985 -0.022136433 -0.09617779
0000c0 af a7 d1 bc 44 8b 84 bd d2 f9 72 bc 83 16 8c 3b
       -0.025592653 -0.06471875 -0.01483007 0.0042751445
0000d0 aa 01 c8 bd 59 9d c4 3c af 06 9a 3d e8 7a 57 3d
       -0.097659424 0.02400081 0.07520806 0.052607447
0000e0 48 75 a4 bd 08 2c d7 bc 6e 3e a6 3c 17 83 b6 3d
       -0.08030182 -0.026266113 0.02029344 0.08911722
0000f0 4b aa 0b bd a4 2a c8 3d 19 03 28 3d 80 3d 50 bd
       -0.03409795 0.09773758 0.04101858 -0.0508399
000100 ae 58 89 3c f7 d3 e9 bd 31 45 56 bd ed d8 5f 3d
       0.016765919 -0.11417382 -0.05231208 0.054650236
000110 ff a5 93 bc 92 39 ef 3b f9 2b 6a bb df bc 29 bd
       -0.018023489 0.007300564 -0.0035731776 -0.041439887
000120 37 a3 4d bd 88 e5 ae bc d6 d7 80 bd 74 8f 93 bc
       -0.050204482 -0.021349683 -0.062911674 -0.01801274
000130 33 50 61 bd 91 ca 89 bd 7d e4 a5 bd 35 08 a6 3c
       -0.055008125 -0.067280896 -0.08100221 0.020267585
000140 36 19 66 bc fe dc 91 3c 23 8c 8f 3d 00 eb b1 3d
       -0.014044097 0.017805573 0.07009151 0.08687401
000150 8c 36 9a bd a1 17 8e 3c fb 78 c3 3d 65 c2 45 3b
       -0.07529935 0.017345252 0.095445596 0.0030175683
000160 70 02 1d 3c 69 8d 36 bc 38 22 61 3d fd d2 a5 3b
       0.009583101 -0.011142113 0.054964274 0.005060552
000170 fc ee 98 3c f7 71 d0 bc be 56 fb bb ac 75 9a 3d
       0.018668644 -0.025444968 -0.0076702526 0.075419754
000180 63 f7 48 3d d8 3a b3 3c ac 0e ea 3c e1 b9 65 bd
       0.04906405 0.021878645 0.02857145 -0.05608547
000190 85 40 61 3d d5 3c f1 3c d4 e7 05 3e 2f 3c a8 3d
       0.05499317 0.029447952 0.13076717 0.08214604
0001a0 3b 5c f4 bd bf 43 59 bd 9c a7 a6 3d 12 00 08 3e
       -0.11931654 -0.053043123 0.08137438 0.13281277
0001b0 5c d2 28 bd 3e af dc bd 7b 71 02 3d 6c cb 47 be
       -0.04121624 -0.10775612 0.031846505 -0.19511193
0001c0 42 15 2c be 5b c2 18 be 30 7c 26 3d 7a ee ff b9
       -0.16804984 -0.1491789 0.04064578 -0.0004881507
0001d0 7b df 57 bd 52 62 d7 bd 53 65 85 3c db c1 80 3d
       -0.052703362 -0.105168 0.016283667 0.06286975
0001e0 ae 70 96 bd f5 19 37 bd a9 ea e7 bc 76 78 99 bb
       -0.07345711 -0.04470249 -0.028310137 -0.0046835495
0001f0 d6 9d f1 bc 3a b3 63 3d 73 ad 4a 3d 8b 36 21 3d
       -0.029494207 0.055590846 0.04948182 0.039358657
000200 3d cd e8 bc 51 95 6f bd 5a 90 9b bc 6d 3d ff 3d
       -0.028418178 -0.05849201 -0.01898973 0.12462888
000210 80 fe 40 3e 5b f8 9c 3d ee 6a 1d be 83 d4 0e 3c
       0.18847084 0.076645575 -0.15372822 0.008717659
000220 c9 76 23 bd cf 08 92 3b ea aa 94 bd c4 5c ac 3d
       -0.039908204 0.0044566165 -0.07259162 0.08416131
000230 75 01 75 3c 41 61 0c bd af 09 2a bc 1c 8e 4b 3d
       0.014953961 -0.034272436 -0.010378285 0.049696073
000240 9e 16 49 3d 38 88 c2 bc 03 db 40 bd 19 e9 ef 3c
       0.049093835 -0.023746595 -0.047083866 0.029285954
000250 23 9a 12 3d bc 2b 24 3b fa 58 11 bd d0 21 06 bd
       0.035791527 0.0025050482 -0.035485245 -0.03274709
000260 55 c2 c0 bc 3a 63 70 bc a4 cd 0d 3e 3a 13 70 3c
       -0.023530165 -0.014672095 0.13847977 0.0146530215
000270 46 60 32 bd 1a b2 c7 bd 22 fc 6b 3d d0 08 31 3e
       -0.043548845 -0.09750767 0.0576135 0.17288518
000280 b1 bd 68 3d df b0 7a bd 7b ee 99 bb 08 2d e4 3d
       0.05682153 -0.061203834 -0.0046976185 0.111414015
000290 fd 83 19 3d 65 dd 15 bd f7 79 60 3c 93 f1 cf bc
       0.03747939 -0.03658809 0.013700954 -0.025383746
0002a0 7e f1 b7 bd 89 8a c2 bd 69 92 81 3c 7d df ff bc
       -0.08981608 -0.0949908 0.015816884 -0.031234497
0002b0 ca 74 4d 3c e5 37 ab 3c 08 44 0b 3d 9b ff 43 3c
       0.012540052 0.020900676 0.034000427 0.011962797
0002c0 37 b7 82 bd 5f 21 01 bb 85 cf 88 3d 38 61 a1 3c
       -0.06382602 -0.0019703729 0.06680206 0.019699678
0002d0 15 8b 5a bd 06 4a db bc bf 9e 94 3d bc a5 69 3d
       -0.053355295 -0.026768696 0.07256841 0.057042822
0002e0 f9 e6 70 bd e9 57 e2 bc 60 79 81 bd 93 1c b8 bc
       -0.058814023 -0.02762981 -0.063219786 -0.022474563
0002f0 df 90 0a 3d 1a 9c 34 bd 71 e8 56 bc 9a d5 b7 3c
       0.033829566 -0.044094183 -0.013116942 0.02244072
000300 24 cc df 3b 73 af eb 3c 3f 19 1f 3d ba b0 df 3d
       0.0068297554 0.028770184 0.038842436 0.1092238
000310 40 1b 5d 3d 3f c0 8c 3c 4f 3a d4 3d 35 95 f1 bc
       0.053981066 0.017181514 0.10362684 -0.029490093
000320 4b 49 10 3d 52 db 4f 3d 5a 9b 03 3d e4 02 4c 3c
       0.035226148 0.05074627 0.032130577 0.012451861
000330 a8 cf 74 3d 2d 67 c0 bd 79 d6 e5 3d 55 57 8a 3d
       0.05976835 -0.09394679 0.11222548 0.067549385
000340 5b d5 bc bc 33 9c df bd e1 4f cd bd 22 de 66 bd
       -0.023050955 -0.109184645 -0.10025001 -0.056364186
000350 12 57 9b bd 01 12 04 be 26 cd f2 ba 6b 2c ee bb
       -0.07584967 -0.12897493 -0.0018524274 -0.0072684786
000360 67 8a e0 bd d9 35 db bc c4 ea e9 bc 8a 84 79 3d
       -0.10963898 -0.026759075 -0.028554328 0.060917415
000370 51 b9 84 3d a7 50 fb 3c e2 81 10 bc d4 dc 3a b9
       0.06480659 0.030678106 -0.008820029 -0.00017820607
000380 1d d8 11 bc f2 31 49 3d cc 49 25 bd dc d1 8f bd
       -0.008901623 0.049119897 -0.04035358 -0.070224494
000390 74 f5 26 3c 70 d5 37 bd 72 61 86 3c cf e9 6c 3d
       0.0101903565 -0.044881284 0.016403887 0.057840165
0003a0 dc 24 16 3d ef 7b e9 3c 5d 82 e3 bd bf b5 d1 bc
       0.036656246 0.028501479 -0.11108849 -0.025599359
0003b0 5c 57 bb bd 5b 96 13 bc c8 18 06 3b 04 b5 94 3d
       -0.09147522 -0.0090080155 0.0020461548 0.072610885
0003c0 2d 67 93 3d f9 24 f3 3b b6 30 c5 bc ca 79 1d 3d
       0.071974136 0.007420179 -0.024071079 0.038446225
0003d0 66 f7 e4 bc ef 89 85 bc 36 0e 3a bd 59 9c 48 bd
       -0.02795 -0.016301123 -0.04542371 -0.04897723
0003e0 cc 28 df bc 6f 0a a8 3b 21 d1 94 bd c7 8d 3e bd
       -0.027241133 0.005128197 -0.07266451 -0.04652193
0003f0 3e f0 5a 3d 70 33 18 3d e4 b9 86 bd 3e 28 0c be
       0.05345177 0.03715843 -0.065784246 -0.13687226

fc1.bias f4 [120]
000000 d2 d7 18 bd 26 f8 b1 3d a8 79 4a bc 96 59 25 3c
       -0.037315197 0.08689909 -0.012358107 0.01009216
000010 12 19 03 3e 2c b8 74 bd 38 a5 64 bc 78 f3 3f bc
       0.12802532 -0.059745952 -0.013955407 -0.011715762
000020 10 f4 2f bc ee dd 09 3c e7 88 0b 3d 7e 3d 89 bd
       -0.010739341 0.008414729 0.034066107 -0.06701182
000030 cb 41 ce bd a9 f8 94 bd 05 37 57 3d c4 4d e6 bd
       -0.10071143 -0.07273991 0.052542705 -0.11245301
000040 79 d7 da 3c 8f 2e 99 3d 50 36 7b bc 02 48 0a be
       0.026714073 0.074795835 -0.015332773 -0.13504031
000050 16 27 93 bd eb 86 28 3e cb 5a aa ba d2 02 81 3d
       -0.071851894 0.16457717 -0.0012997029 0.06299366
000060 32 65 51 bc f2 9f 58 bd a9 df 6f bc 22 2c ec bd
       -0.0127804745 -0.05288691 -0.014640727 -0.11531855
000070 e0 ec b5 bd 04 34 ed bd cd 98 88 3d 70 fa ed 3d
       -0.08883071 -0.11582187 0.066697694 0.11620033
000080 b4 cc a0 3d fd 7c bb bd 78 fe 68 bd b6 2e a1 3d
       0.07851544 -0.09154699 -0.056883305 0.078702375
000090 f1 6b 97 3d 34 c7 89 3b 01 73 8e bb f4 7c 98 3d
       0.07393635 0.004204655 -0.0043472056 0.07445708
0000a0 7a 2d b7 bd ad 5b 59 bd 7b c2 2b bd 77 79 05 be
       -0.08944221 -0.053065944 -0.041933518 -0.13034616
0000b0 72 fa a0 bc a8 78 1d 3d 85 72 3b 3d 47 3b 38 bd
       -0.019650672 0.038445145 0.04576351 -0.044978406
0000c0 81 0c 11 be c7 67 8c 3d 6f 8d 94 bd d8 35 72 3c
       -0.14164926 0.068557315 -0.07253539 0.014783345
0000d0 b4 1e aa bd b5 6c e4 3d 66 95 e6 bc 6b d2 75 bd
       -0.083066374 0.11153547 -0.02814741 -0.060015123
0000e0 76 1e d8 bc aa 0a 10 bd 56 c3 1b bd 65 2d a2 bd
       -0.026381712 -0.03516642 -0.038028084 -0.079188146
0000f0 28 9a c2 ba cf e0 6d 3d 4d 4f 2d bd d9 95 0b 3e
       -0.0014846968 0.058075722 -0.042311955 0.13631381
000100 7b 1c 1d bd 9b a2 89 bd 67 51 84 3c d3 13 ee bc
       -0.03835724 -0.06720468 0.016152097 -0.029062187
000110 91 dd 70 3d 71 02 c3 3d 8d f5 86 bc a5 54 c5 3d
       0.058805052 0.0952195 -0.01647451 0.09635285
000120 7a 44 9d bd 3e 5f 28 bc 5c ed 16 3e f2 20 1f 3d
       -0.076790765 -0.010276614 0.14738983 0.03884978
000130 b3 c4 11 3d 62 a7 33 3e b8 cc 29 3e 7f 30 e6 bd
       0.035587978 0.1754432 0.16582 -0.11239719
000140 20 70 d7 3c 6b 17 da bc 79 2e bd 3d e4 2f d6 bc
       0.026298583 -0.026622495 0.092373796 -0.026145883
000150 58 7b 5e bd 11 f9 fe bd 6f a9 0c be c3 5f 57 bd
       -0.05431685 -0.124498494 -0.13736509 -0.05258156
000160 62 d7 b4 bd 01 05 7a 3d 7c a0 1a be b9 ce 8e 3d
       -0.088301435 0.06103993 -0.15100282 0.06973023
000170 bb e3 ab bd a6 b2 b1 3d 69 65 77 3d f7 ad ac 3d
       -0.083930455 0.086766526 0.060399447 0.08431619
000180 4f 7e 72 3d 22 1d 0a ba f3 9e 17 3b 4d 7f 73 bd
       0.05920249 -0.00052686234 0.0023135513 -0.059447575
000190 c8 85 9b 3d fb 4e cc 3d 07 26 6e 3d 58 9d 2e be
       0.07593876 0.09976002 0.058141734 -0.1705221
0001a0 33 ff 83 bd 73 9b dc 3c 1b 7a e5 bc 1e 21 ed 3c
       -0.0644516 0.026929593 -0.028012326 0.028946456
0001b0 5c 57 a3 bd de 65 85 bd 91 50 ff bd 3f a0 4b be
       -0.07975647 -0.0651357 -0.12466539 -0.19885348
0001c0 e2 02 07 3c ad 97 76 bd 23 be b1 bd b7 87 3e 3c
       0.008240433 -0.060203243 -0.08678844 0.011629037
0001d0 c5 82 b3 3d 00 85 3c 3d 79 b3 0c 3e 55 32 ce 3c
       0.08765177 0.046025276 0.13740338 0.025170485

fc2.weight f4 [84, 120]
000000 8c a3 3b 3d 17 48 a1 3d 8f 1b ac bc 6e 58 b3 3c
       0.045810267 0.07875078 -0.021009235 0.021892752
000010 37 98 bc 3d 00 b4 90 3c 34 67 34 bd 8a 4d a1 bd
       0.0920872 0.017663956 -0.044043735 -0.078761175
000020 a3 64 14 be 1f 11 e2 3a 3d 30 26 bd 5b 0c 17 bd
       -0.14491515 0.0017247534 -0.040573347 -0.036877017
000030 5a fd 6d 3d a1 d5 fe bd e4 71 cd 3c af 8b 63 be
       0.058102943 -0.1244309 0.025078721 -0.22221254
000040 e2 f1 3f 3e 7c 41 45 bd dd a5 e4 bc b8 6b ca bd
       0.18744615 -0.048158154 -0.027911121 -0.09883827
000050 4d 8b 66 bd d2 32 bb 3d a9 3c 82 bd 75 dc a1 3d
       -0.05628519 0.091405526 -0.06359226 0.07903377
000060 ce 92 c5 3d ec 95 d7 3c 9d 39 45 bd 2a ad a1 3d
       0.096471414 0.026316606 -0.048150647 0.078943565
000070 43 f8 0e be c9 96 a5 bd 4c 9f ce 3b 68 ce 23 3d
       -0.13961892 -0.080854006 0.0063056108 0.039991766
000080 74 b9 98 3c 9a 27 83 3d a4 5b 27 3e ab 2c f9 3d
       0.018643118 0.06404038 0.16343552 0.12166723
000090 67 7a fc bd fc 4d c4 3d ba fd be 3d 82 0f 15 be
       -0.12328034 0.09585187 0.09325738 -0.14556697
0000a0 06 fc 94 3d 09 46 b0 bd 92 3b 31 be c4 91 1a be
       0.07274632 -0.08607108 -0.1730788 -0.15094668
0000b0 cb ec 41 bd ca 56 02 bd 48 37 bb 3d 13 83 a8 bd
       -0.047344964 -0.03182105 0.091414034 -0.082281254
0000c0 d0 d2 0b be 0c 78 e2 3c 2b 57 fc 3c 6a 52 05 3e
       -0.13654637 0.027645133 0.030803284 0.1301972
0000d0 83 23 32 be 94 32 32 3d 70 87 ac bc 86 1c b4 3d
       -0.17396359 0.043505266 -0.021060675 0.08794503
0000e0 3c 27 57 be 4c 76 6d bc 6c b9 38 bc 9a 2f a3 3d
       -0.2101106 -0.014493536 -0.011274677 0.07968064
0000f0 65 d9 3d 3e 38 cd f1 bd e9 23 92 3d 03 55 f2 3c
       0.1853996 -0.118067205 0.071357556 0.029581552
000100 39 5f e9 bc c1 2c 6e bc fc 82 d3 3d a6 43 55 3d
       -0.028487789 -0.014537037 0.10327718 0.052066468
000110 5c f0 5a 3d 99 a5 07 3e a8 91 a1 3d 93 97 72 3c
       0.05345188 0.13246764 0.0788911 0.014806646
000120 2a a7 93 bd 24 4d d7 bd 37 c7 39 bd 3a fb 54 bd
       -0.072096184 -0.1051276 -0.045356 -0.0519974
000130 ee 74 98 3d cd 10 c8 bc 87 71 8c 3d 3c eb d0 3d
       0.074441776 -0.024422074 0.06857591 0.102011174
000140 79 7e 23 3e 46 6f 10 3d 23 81 c3 3c ac 49 05 be
       0.15966214 0.03526237 0.023865288 -0.13016385
000150 f2 8e f5 bc a5 e9 a4 bd 39 f8 20 3e 45 66 37 be
       -0.029975388 -0.08052377 0.1571969 -0.17910106
000160 34 75 89 3d 69 bd 1c 3c 4a 79 b5 bd 67 89 6c bd
       0.06711808 0.009566643 -0.08861025 -0.057748225
000170 26 a6 35 3d 86 46 75 3d 11 1c 27 be 93 30 34 be
       0.044347905 0.05988171 -0.163193 -0.17596655
000180 ae 7f 66 3e 54 5a a1 bd d5 9e 46 be f2 e6 67 bd
       0.22509643 -0.07878557 -0.19396527 -0.05661673
000190 f6 d3 05 3e f9 54 2e 3e 81 83 80 3d 62 1a 3c 3d
       0.13069138 0.17024602 0.062750824 0.045923598
0001a0 bf fa 4a bd 23 24 45 bc 89 15 25 3e 19 35 99 bd
       -0.049555536 -0.012032541 0.16121496 -0.07480831
0001b0 b2 db f9 bd fc 39 74 3d 5f 46 1a be a6 aa 9c bd
       -0.12200107 0.05962561 -0.15065907 -0.07649736
0001c0 0e 4c 4d 39 6f 12 b4 bd 25 c7 3b 3d 98 3e f1 3d
       0.00019578656 -0.087925784 0.045844216 0.11779517
0001d0 83 a7 e8 bd 05 fe 64 3d 2c 66 60 bb d6 09 f9 bd
       -0.11360075 0.055906314 -0.0034240587 -0.12160079
0001e0 bd b1 f6 bc 50 c8 d9 bd 8c 71 cb bd 09 b8 1d be
       -0.03011405 -0.1063391 -0.09933767 -0.15402235
0001f0 7f 3e c9 3d 1b 96 e5 3d db c8 6a 3e 62 4e 42 3e
       0.09826373 0.11210271 0.22928183 0.18975213
000200 1b bb 34 bd 2c c3 4c 3d 3d c1 c9 bd 24 62 80 bd
       -0.04412375 0.049990818 -0.098513104 -0.06268719
000210 df 68 9e 3b a4 8b 32 be 62 22 77 bd 5e 29 2c be
       0.004834279 -0.17436081 -0.060335524 -0.16812655
000220 55 27 5f 3c 29 75 b7 bd ea 09 30 3e 15 4f 8d bd
       0.013620217 -0.089578934 0.17191282 -0.06899849
000230 5d 96 4a 3d ca a7 e2 3d 13 7c da 3d 91 cc bd 3d
       0.049459804 0.110671595 0.106681965 0.092675336
000240 71 03 e7 bd ef df 0f be 13 1f de 3d f2 75 80 3d
       -0.11279953 -0.14050268 0.10845771 0.06272496
000250 62 f1 fe bd 7f ea 49 be df ac 61 bd 7c 35 2f 3e
       -0.12448384 -0.1971836 -0.055096503 0.17110246
000260 e0 2a dc 3b 81 a9 e8 3c be 03 49 bd 67 e3 c6 3d
       0.0067189783 0.028401138 -0.049075834 0.09711342
000270 23 9e 8a bd e1 0c 80 bd 4f ab 36 3d 47 31 11 bd
       -0.067684434 -0.062524565 0.044596966 -0.035447385
000280 35 36 64 be d4 63 03 3d 6b 74 21 bd 3a da 3f be
       -0.22286303 0.032077625 -0.039417665 -0.1873559
000290 04 d4 03 3e 6e 0f fd 3c 5f 08 c1 3d a5 23 8c 3d
       0.12873846 0.030891147 0.09425425 0.06842736
0002a0 31 eb 1a be 9f bd 66 3e 38 3d 9c bd 44 9b d3 bd
       -0.15128781 0.22533272 -0.07628864 -0.10332349
0002b0 a3 ac aa 3d 02 36 1c 3e 43 e9 9b 3c e0 37 6d 3d
       0.08333709 0.15254977 0.019032126 0.057914615
0002c0 5a f4 25 3d 25 5e ba bd 0d 0d 2a be 5b 6a d8 bc
       0.040516235 -0.09099988 -0.16606541 -0.026417902
0002d0 c3 6c 55 bd a8 97 64 3d 1e 5d 07 bb c2 53 04 3d
       -0.052105676 0.055808693 -0.0020654867 0.03230644
0002e0 57 73 1e 3d ba d8 80 3d 76 dc 16 bd b1 66 ca 3d
       0.038684215 0.06291337 -0.03683134 0.09882868
0002f0 99 68 14 be 18 17 2e 3d ff 47 8a bd 4a e3 04 bb
       -0.14493026 0.042502493 -0.067520134 -0.0020277076
000300 fe 51 c1 bb ab 24 9d 3d 80 4d e5 bd f1 ed 87 3d
       -0.005899667 0.076730095 -0.111964226 0.066371806
000310 11 f7 6a bc 40 43 03 be 3f e0 1f 3e 67 48 b5 bd
       -0.014341132 -0.12818623 0.15612887 -0.088517
000320 e2 e5 4f 3c c3 93 3e 3c e7 f6 19 3d bb c1 a5 3c
       0.012689086 0.011631909 0.03758898 0.02023398
000330 f8 e4 26 be 44 e1 6e be 30 6d 23 be 73 71 d5 bd
       -0.16298282 -0.2332812 -0.1595962 -0.10422029
000340 e4 3f 2e 3c e6 1d bd 3c a9 e9 10 3e f5 76 26 be
       0.01063535 0.023085546 0.14151634 -0.16256316
000350 03 8f d3 3c 7d c6 76 3d 93 df 90 3e 1f 6c 3c 3e
       0.02582503 0.060247887 0.28295574 0.1840062
000360 71 5e 0e bb f9 a0 78 bd 65 90 d1 bd d7 53 89 bc
       -0.0021723772 -0.06070039 -0.10232619 -0.01676361
000370 de be ae 3d 69 bd 5b bd 3f 55 24 bc ce 91 8f ba
       0.08532499 -0.053647432 -0.01003009 -0.0010953487
000380 c9 7b 2b 3e 5e 85 6c 3e 56 0b 4b be a7 57 2b 3d
       0.16746439 0.2309775 -0.19828543 0.04183164
000390 e0 56 f5 3d 99 45 7d 3d 9e d3 bb bd b4 8b 6e bd
       0.11979461 0.06183395 -0.09171222 -0.0582387
0003a0 9e ab 37 bd 75 12 f8 3c d3 ed 25 be 99 e6 91 bd
       -0.0448414 0.030282238 -0.16204004 -0.07124061
0003b0 ab f6 f8 bd fe 1e 9c 3c 4d d1 33 bc 96 e0 e2 3d
       -0.12156423 0.019057747 -0.010975194 0.110779926
0003c0 d2 a9 3c 3e bc 90 30 bc 52 17 26 be e7 16 bc 3d
       0.18424156 -0.010776695 -0.16219833 0.09184056
0003d0 0e bb 5b be 29 ef 08 3e 96 c8 1f 3c 5d e1 8e bd
       -0.21458074 0.13372482 0.009752413 -0.069765784
0003e0 86 3f af 3d d6 09 31 3d 34 01 2a be 05 af fe 3d
       0.08557038 0.04322227 -0.16602021 0.12435726
0003f0 69 be 86 3d 27 63 82 bc fd 38 c4 bd 12 a6 33 bd
       0.065792866 -0.01591642 -0.09581182 -0.04385955

fc2.bias f4 [84]
000000 36 5b ac 3d 3e 65 10 3e be ad 7b bd 9d 64 ba 3d
       0.084158346 0.14101121 -0.06144499 0.09101222
000010 65 3a dc 3d fb dc 57 be 4d 9c 98 3d 29 b4 25 3e
       0.107533254 -0.21080391 0.07451687 0.16182007
000020 b6 3e 9d bd 6f 53 33 be 9f 5b 47 bc 0c bf 92 3d
       -0.07677977 -0.17512296 -0.01216784 0.071653455
000030 3f 05 16 be 1e 13 19 3e 40 4e 50 3d c9 4a ff bc
       -0.14650439 0.14948699 0.050855875 -0.03116359
000040 9f 8c 98 bd 00 66 58 bd 16 63 db bd 22 47 00 3d
       -0.07448696 -0.05283165 -0.107122585 0.031317838
000050 6d ea 70 3d 22 61 bf 3d 6c 4c ad bc 8f 5d 5a 3c
       0.058817316 0.093446985 -0.021154605 0.01332797
000060 66 c4 bc 3d b6 3d 7d be 25 da dd bc bd d6 ba 3d
       0.092171475 -0.24730572 -0.027081558 0.09122989
000070 d1 24 67 be 32 fb 89 3d c8 49 3c 3e 4c ca d5 3c
       -0.22572638 0.06737365 0.1838752 0.02609744
000080 86 fe 17 be 4e 57 ed 39 49 f4 9e 3d 87 6d 36 3e
       -0.14843187 0.0004526921 0.077614374 0.17815219
000090 29 f9 6a be 01 47 8f 3d 28 af 85 3e f7 fd 99 3d
       -0.2294661 0.06995965 0.26110196 0.07519143
0000a0 1c f9 1e 3d 86 32 48 be 4d a8 33 be 3e 90 70 bc
       0.038811788 -0.19550523 -0.1754467 -0.0146828275
0000b0 37 81 22 be 04 d4 20 be 58 de e6 3c ce c0 86 3d
       -0.15869604 -0.15705878 0.028182194 0.06579743
0000c0 52 fe 31 3d b1 ba 90 3d 8a 49 ac bc 8a 43 21 3e
       0.04345543 0.070668586 -0.02103116 0.1574842
0000d0 d5 3e 44 3e d3 3e b2 bd ca 1a 61 3e f6 4b 20 3e
       0.19164594 -0.08703389 0.21982875 0.15653977
0000e0 29 e4 9a 3e eb df 4b be 35 3e ca 3d c1 32 81 3e
       0.30252197 -0.19909637 0.09875146 0.25234035
0000f0 08 0c 15 3e 5b 34 88 3c 42 ec ac 3d 07 7b 52 3c
       0.14555371 0.016626528 0.084435 0.012846715
000100 20 21 f3 3d bf de f5 bd e1 cc 97 3e f9 84 af 3d
       0.118715525 -0.12005376 0.29648498 0.085702844
000110 21 49 d2 3d f6 9f 98 3e 44 05 22 3e d3 5d 4b 3e
       0.102678545 0.2980954 0.15822321 0.1986001
000120 51 ca a1 bd 42 ba e8 3d 96 09 28 bc 67 59 23 bd
       -0.07899917 0.11363651 -0.010256192 -0.039880183
000130 a6 32 83 3e 5a 56 a3 bd 46 f3 e5 3d aa 08 79 bd
       0.2562458 -0.07975455 0.11228041 -0.06079928
000140 9f 09 8b 3d 57 4e ad 3d 8e 9a 32 3e 5a 9f 6d 3e
       0.067889445 0.08462208 0.1744177 0.23205319

fc3.weight f4 [10, 84]
000000 a9 2e f2 be 15 c6 d4 bd b9 69 25 3e ac c1 1c bf
       -0.47301224 -0.10389344 0.16153611 -0.6123302
000010 a8 49 2e 3e 07 f8 93 3c b3 87 eb be 32 80 28 3c
       0.17020285 0.018062605 -0.46001968 0.01028447
000020 da ac 89 ba ac 9f 2a 3e 59 d7 c9 3e 0d 72 5e be
       -0.0010503784 0.16662472 0.3942211 -0.21723194
000030 47 81 f8 3e bd a1 f1 bd f2 a2 80 3e 16 49 9c be
       0.4853613 -0.11798427 0.25124317 -0.3052451
000040 41 d7 dc 3e eb f0 5f be 84 6c df bd e6 78 2f 3e
       0.43132976 -0.21869247 -0.109093696 0.17135963
000050 80 c1 22 3e 3e 12 88 be 36 ef e3 bd cf f3 07 3e
       0.15894127 -0.26576418 -0.1112961 0.132766
000060 20 a3 9a be 45 32 07 3f ef d9 20 3e c9 bf 33 3c
       -0.3020258 0.5281108 0.15708135 0.010971018
000070 a1 58 21 be 8a 7e 2c 3e 06 c0 92 3e 3d 24 a1 3e
       -0.15756465 0.16845146 0.28662127 0.3147296
000080 34 3a 63 3d 1e 3d 81 be 52 04 a3 3e 69 d6 3e 3d
       0.05547543 -0.2524194 0.31839234 0.046591196
000090 63 26 32 3e e6 72 cc be 86 a4 a2 be 54 b6 91 be
       0.17397456 -0.3993141 -0.31766146 -0.28459418
0000a0 67 1c c0 be 27 23 8d 3e 0f 7b 04 3e fb 1d b2 3e
       -0.3752167 0.27565882 0.12937568 0.34788498
0000b0 49 ae 29 be fc b8 0c 3f 56 59 c7 3e b6 c6 c9 3c
       -0.16570391 0.54969764 0.38935345 0.024630886
0000c0 0d 18 8b be 2b 50 25 3e b8 40 06 3e a2 f3 9a be
       -0.27166787 0.16143863 0.13110626 -0.30264002
0000d0 f5 7f de bd e1 71 fe bd e5 28 08 be 34 43 4a 3e
       -0.108642496 -0.124240644 -0.1329685 0.19752198
0000e0 21 7c c8 be 79 4f cc 3e b7 4b 1d 3e b0 7e 02 bf
       -0.39157203 0.39904383 0.15360914 -0.5097456
0000f0 ab fc 5f be 1d 49 7e 3e 26 1f ad 3d 2c d7 9e be
       -0.21873729 0.24832578 0.08453207 -0.31023538
000100 56 70 a0 3e 1a 85 0d 3f eb c9 7a be 75 08 9e 3e
       0.31335706 0.5528122 -0.24491088 0.30865827
000110 cc 85 0a bf fe d0 44 be 80 b1 82 bd 47 bb 7c 3d
       -0.5411041 -0.19220349 -0.06381512 0.06170204
000120 5d 4e de 3e 5d 57 e0 be 3c 7c 9d 3e f7 d0 17 3e
       0.4341916 -0.43816653 0.30758846 0.14825808
000130 8c 37 f5 be 70 5c ad 3e 60 86 c2 be e2 74 e9 3e
       -0.4789394 0.33859587 -0.37993145 0.45596987
000140 e5 46 15 3e 95 de ec 3e 71 b8 1c be 73 32 af be
       0.14577825 0.46263567 -0.15304734 -0.34218177
000150 45 6e 06 be d0 01 10 bf e6 ba 6c 3e 25 57 84 be
       -0.13128002 -0.56252766 0.23118171 -0.25847736
000160 0c cf 81 3e 25 9a 18 be 4b d0 e0 3d 2c 6f 8d 3e
       0.25353277 -0.14902551 0.10977229 0.2762388
000170 4f 08 1c 3b 12 e0 d1 3e 44 2b 33 be ae e8 47 bd
       0.0023808663 0.40991265 -0.17496973 -0.048805885
000180 d1 d2 67 be a6 32 c0 be e5 bf e4 3c 89 ec 9d bb
       -0.22639014 -0.37538642 0.027923534 -0.004819457
000190 47 29 b8 be 20 17 fb be 61 25 86 3e bb e6 a5 3e
       -0.35968992 -0.4904108 0.26200393 0.32402596
0001a0 76 e3 e9 be 5e a4 24 be 9c c0 c5 3e df 6f ec be
       -0.4568135 -0.16078326 0.38623512 -0.461791
0001b0 9c 04 b1 3d c9 70 4a 3e 8b 5a 2d bd ee 87 aa be
       0.08643457 0.19769587 -0.042322677 -0.3330683
0001c0 b7 ed 6d be 70 ba ce be 15 8f ab 3e 68 b4 0a 3e
       -0.23235212 -0.40376616 0.335076 0.13545382
0001d0 98 fe 08 3e f9 3f 16 3f 15 38 d1 be c7 ed b2 be
       0.1337837 0.58691365 -0.408631 -0.34947035
0001e0 f2 1f 63 bc 6a 39 11 be 71 42 53 be 60 3f 94 be
       -0.013862597 -0.14182058 -0.20630814 -0.289546
0001f0 0d c1 aa bd f6 ee 23 3f c6 01 73 3e 79 7e 7f be
       -0.08337603 0.640365 0.23731145 -0.24950589
000200 93 db 45 3d 2b d8 3e bd 48 71 c2 be 0f c1 ca 3c
       0.048305105 -0.046592873 -0.37977052 0.02475026
000210 47 be ac 3e ca 9d c0 bb 8f ec cd bd a8 bb 86 be
       0.3373892 -0.005878185 -0.100548856 -0.26315045
000220 42 07 36 bf 52 28 01 bd 50 94 29 3e 92 0b 7a 3d
       -0.71104825 -0.031532593 0.16560483 0.06104619
000230 2d 1e 41 be 09 5e e7 3e 0b aa 76 be 91 2e 93 be
       -0.18859167 0.4518893 -0.24088304 -0.28746465
000240 e8 6c 38 bf ca 8b b8 3e f0 0e b7 be b6 a7 84 3e
       -0.7204118 0.3604415 -0.35753584 0.25909203
000250 33 b3 2f 3e e1 ad 08 be 77 f6 4f be f0 89 27 bf
       0.17158203 -0.1334758 -0.20308863 -0.6544485
000260 99 b6 a8 3e bf fd af be 55 28 bc bd 11 24 9b 3d
       0.3295181 -0.3437328 -0.0918738 0.075752385
000270 f1 44 ea be 0e 5a 1c 3e bc 9b 32 bd 18 53 8c 3d
       -0.45755723 0.15268728 -0.04360555 0.068517864
000280 03 65 cf be 90 b4 0c 3e 5d 70 89 3e 0b 0f 1a be
       -0.40506753 0.13740754 0.2684354 -0.15044801
000290 0d 5f 88 be 73 c6 c0 be 9a 6a d9 be 4a af b8 be
       -0.26635018 -0.37651405 -0.42464143 -0.36071235
0002a0 d8 7c 88 3e 7d 2e a4 3e b4 f3 e9 3e 41 d2 77 3e
       0.26657748 0.32066718 0.45693743 0.24201299
0002b0 5f 82 9b be 97 88 39 3e 4c 05 56 3b 51 3e d8 be
       -0.30372903 0.18118511 0.0032656966 -0.42235044
0002c0 f3 06 08 be ef f7 94 3e 0d cd b7 be 9c 82 29 be
       -0.13283901 0.29095408 -0.3589863 -0.1655373
0002d0 24 e2 50 bc da 85 9f 3e 9f 40 ba bd f5 46 7c 3e
       -0.012749229 0.31156808 -0.09094357 0.24636443
0002e0 53 0b 3b 3f 6d c5 03 3e 98 41 9e 3e c9 41 8b 3e
       0.73064154 0.1286828 0.3090942 0.27198628
0002f0 7e f2 b8 be 72 1d 7a 3e 49 5e 84 3e 67 ba 6b be
       -0.36122507 0.24425295 0.25853184 -0.23020326
000300 ce d7 2a bf 7f de 66 3e 25 26 f3 3e e4 be b3 3c
       -0.6673554 0.22545813 0.4749004 0.02194161
000310 cb 59 f1 bd 93 06 c0 be 99 de db 3d 44 dd e8 be
       -0.11784705 -0.37505016 0.107358165 -0.45481312
000320 22 13 0e 3f 6e 06 9b 3e 99 00 3d be 58 fe d5 3e
       0.55497944 0.30278343 -0.18457259 0.4179561
000330 11 28 68 3e c2 ed 41 be 6b ab ee bd 48 e2 0e 3e
       0.22671534 -0.18938354 -0.11653789 0.13953507
000340 ae 41 84 3e bd 04 1a 3d 2a af fc ba 4a 21 4e bf
       0.2583136 0.037602175 -0.0019278277 -0.80519545
000350 be 00 59 be 8a 96 e9 3e 66 ec 1c 3e 16 e1 ad be
       -0.2119169 0.45622665 0.15324554 -0.3396079
000360 0d ae 04 3d 73 5c 0f bf bf fe 2c bd 96 4c b1 be
       0.03239255 -0.5600044 -0.042235132 -0.34628743
000370 e9 02 79 3c 37 de 0b be 4b c9 23 be 8a e6 ce bd
       0.015198448 -0.13658987 -0.15994756 -0.101025656
000380 85 f2 03 bf b8 93 2a 3e 8d 8c 3e be 6f 80 92 be
       -0.5154193 0.16657913 -0.18608303 -0.28613612
000390 4f 2c 42 bd c0 9f 3f be 02 dc 98 be 8b 9b 0c 3f
       -0.047405537 -0.18713284 -0.29855353 0.5492484
0003a0 9f 98 28 bb ad 17 0f 3f cb 6f 69 be 28 3c c5 3e
       -0.0025725735 0.558955 -0.22796552 0.38522458
0003b0 05 9f d6 be b8 09 de be f9 96 23 bf 83 47 43 be
       -0.41918197 -0.4336679 -0.6390224 -0.19070248
0003c0 0f b1 fd 3e 92 cc 41 bf 6a cb 9b 3d 25 e4 f6 3d
       0.49549147 -0.75702775 0.076071575 0.12055234
0003d0 49 85 51 be 9b 31 a2 be 0f b0 c2 3e 6a 4e 48 bd
       -0.20461 -0.3167847 0.38024947 -0.048902906
0003e0 df f1 d8 bc 07 be fd be ea c9 c4 be dd 6d 27 be
       -0.02648252 -0.49559042 -0.38435298 -0.16350503
0003f0 3a 31 77 be f0 8f 07 bf bf ad ad 3e 6d 15 87 be
       -0.24139872 -0.52954006 0.3392162 -0.26383534

fc3.bias f4 [10]
000000 ba 99 26 bf 23 38 b0 be 2c 08 e4 be e0 7a 2b bf
       -0.6507832 -0.3441783 -0.44537485 -0.6698437
000010 da 8b 05 bf 17 24 04 bf 75 3b 18 bf c2 fc d2 be
       -0.5216652 -0.5161757 -0.59465724 -0.41208464
000020 98 5f ed be f8 ba 37 bf
       -0.46361995 -0.71769667
